name: 'Single Shot Mask - ResNet 50'

layer {
  name: "data"
  type: "Python"
  top: "data"
  top: "bu_att_mask"
  python_param {
    module: "data.layers"
    layer: "COCOSSMDataLayer_BU_only"
  }

}
layer {
  name: "conv1"
  type: "Convolution"
  bottom: "data"
  top: "conv1"
  convolution_param {
    num_output: 64
    pad: 3
    kernel_size: 7
    stride: 2
  }
}
layer {
  name: "bn_conv1"
  type: "BatchNorm"
  bottom: "conv1"
  top: "conv1"
  param {
    lr_mult: 0
  }
  param {
    lr_mult: 0
  }
  param {
    lr_mult: 0
  }
  batch_norm_param {
    use_global_stats: true
  }
}
layer {
  name: "scale_conv1"
  type: "Scale"
  bottom: "conv1"
  top: "conv1"
  param {
    lr_mult: 0
  }
  param {
    lr_mult: 0
  }
  scale_param {
    bias_term: true
  }
}
layer {
  name: "conv1_relu"
  type: "ReLU"
  bottom: "conv1"
  top: "conv1"
}
layer {
  name: "pool1"
  type: "Pooling"
  bottom: "conv1"
  top: "pool1"
  pooling_param {
    pool: MAX
    kernel_size: 3
    stride: 2
  }
}
layer {
  name: "res2a_branch1"
  type: "Convolution"
  bottom: "pool1"
  top: "res2a_branch1"
  convolution_param {
    num_output: 256
    bias_term: false
    pad: 0
    kernel_size: 1
    stride: 1
  }
}
layer {
  name: "bn2a_branch1"
  type: "BatchNorm"
  bottom: "res2a_branch1"
  top: "res2a_branch1"
  param {
    lr_mult: 0
  }
  param {
    lr_mult: 0
  }
  param {
    lr_mult: 0
  }
  batch_norm_param {
    use_global_stats: true
  }
}
layer {
  name: "scale2a_branch1"
  type: "Scale"
  bottom: "res2a_branch1"
  top: "res2a_branch1"
  param {
    lr_mult: 0
  }
  param {
    lr_mult: 0
  }
  scale_param {
    bias_term: true
  }
}
layer {
  name: "res2a_branch2a"
  type: "Convolution"
  bottom: "pool1"
  top: "res2a_branch2a"
  convolution_param {
    num_output: 64
    bias_term: false
    pad: 0
    kernel_size: 1
    stride: 1
  }
}
layer {
  name: "bn2a_branch2a"
  type: "BatchNorm"
  bottom: "res2a_branch2a"
  top: "res2a_branch2a"
  param {
    lr_mult: 0
  }
  param {
    lr_mult: 0
  }
  param {
    lr_mult: 0
  }
  batch_norm_param {
    use_global_stats: true
  }
}
layer {
  name: "scale2a_branch2a"
  type: "Scale"
  bottom: "res2a_branch2a"
  top: "res2a_branch2a"
  param {
    lr_mult: 0
  }
  param {
    lr_mult: 0
  }
  scale_param {
    bias_term: true
  }
}
layer {
  name: "res2a_branch2a_relu"
  type: "ReLU"
  bottom: "res2a_branch2a"
  top: "res2a_branch2a"
}
layer {
  name: "res2a_branch2b"
  type: "Convolution"
  bottom: "res2a_branch2a"
  top: "res2a_branch2b"
  convolution_param {
    num_output: 64
    bias_term: false
    pad: 1
    kernel_size: 3
    stride: 1
  }
}
layer {
  name: "bn2a_branch2b"
  type: "BatchNorm"
  bottom: "res2a_branch2b"
  top: "res2a_branch2b"
  param {
    lr_mult: 0
  }
  param {
    lr_mult: 0
  }
  param {
    lr_mult: 0
  }
  batch_norm_param {
    use_global_stats: true
  }
}
layer {
  name: "scale2a_branch2b"
  type: "Scale"
  bottom: "res2a_branch2b"
  top: "res2a_branch2b"
  param {
    lr_mult: 0
  }
  param {
    lr_mult: 0
  }
  scale_param {
    bias_term: true
  }
}
layer {
  name: "res2a_branch2b_relu"
  type: "ReLU"
  bottom: "res2a_branch2b"
  top: "res2a_branch2b"
}
layer {
  name: "res2a_branch2c"
  type: "Convolution"
  bottom: "res2a_branch2b"
  top: "res2a_branch2c"
  convolution_param {
    num_output: 256
    bias_term: false
    pad: 0
    kernel_size: 1
    stride: 1
  }
}
layer {
  name: "bn2a_branch2c"
  type: "BatchNorm"
  bottom: "res2a_branch2c"
  top: "res2a_branch2c"
  param {
    lr_mult: 0
  }
  param {
    lr_mult: 0
  }
  param {
    lr_mult: 0
  }
  batch_norm_param {
    use_global_stats: true
  }
}
layer {
  name: "scale2a_branch2c"
  type: "Scale"
  bottom: "res2a_branch2c"
  top: "res2a_branch2c"
  param {
    lr_mult: 0
  }
  param {
    lr_mult: 0
  }
  scale_param {
    bias_term: true
  }
}
layer {
  name: "res2a"
  type: "Eltwise"
  bottom: "res2a_branch1"
  bottom: "res2a_branch2c"
  top: "res2a"
  eltwise_param {
    operation: SUM
  }
}
layer {
  name: "res2a_relu"
  type: "ReLU"
  bottom: "res2a"
  top: "res2a"
}
layer {
  name: "res2b_branch2a"
  type: "Convolution"
  bottom: "res2a"
  top: "res2b_branch2a"
  convolution_param {
    num_output: 64
    bias_term: false
    pad: 0
    kernel_size: 1
    stride: 1
  }
}
layer {
  name: "bn2b_branch2a"
  type: "BatchNorm"
  bottom: "res2b_branch2a"
  top: "res2b_branch2a"
  param {
    lr_mult: 0
  }
  param {
    lr_mult: 0
  }
  param {
    lr_mult: 0
  }
  batch_norm_param {
    use_global_stats: true
  }
}
layer {
  name: "scale2b_branch2a"
  type: "Scale"
  bottom: "res2b_branch2a"
  top: "res2b_branch2a"
  param {
    lr_mult: 0
  }
  param {
    lr_mult: 0
  }
  scale_param {
    bias_term: true
  }
}
layer {
  name: "res2b_branch2a_relu"
  type: "ReLU"
  bottom: "res2b_branch2a"
  top: "res2b_branch2a"
}
layer {
  name: "res2b_branch2b"
  type: "Convolution"
  bottom: "res2b_branch2a"
  top: "res2b_branch2b"
  convolution_param {
    num_output: 64
    bias_term: false
    pad: 1
    kernel_size: 3
    stride: 1
  }
}
layer {
  name: "bn2b_branch2b"
  type: "BatchNorm"
  bottom: "res2b_branch2b"
  top: "res2b_branch2b"
  param {
    lr_mult: 0
  }
  param {
    lr_mult: 0
  }
  param {
    lr_mult: 0
  }
  batch_norm_param {
    use_global_stats: true
  }
}
layer {
  name: "scale2b_branch2b"
  type: "Scale"
  bottom: "res2b_branch2b"
  top: "res2b_branch2b"
  param {
    lr_mult: 0
  }
  param {
    lr_mult: 0
  }
  scale_param {
    bias_term: true
  }
}
layer {
  name: "res2b_branch2b_relu"
  type: "ReLU"
  bottom: "res2b_branch2b"
  top: "res2b_branch2b"
}
layer {
  name: "res2b_branch2c"
  type: "Convolution"
  bottom: "res2b_branch2b"
  top: "res2b_branch2c"
  convolution_param {
    num_output: 256
    bias_term: false
    pad: 0
    kernel_size: 1
    stride: 1
  }
}
layer {
  name: "bn2b_branch2c"
  type: "BatchNorm"
  bottom: "res2b_branch2c"
  top: "res2b_branch2c"
  param {
    lr_mult: 0
  }
  param {
    lr_mult: 0
  }
  param {
    lr_mult: 0
  }
  batch_norm_param {
    use_global_stats: true
  }
}
layer {
  name: "scale2b_branch2c"
  type: "Scale"
  bottom: "res2b_branch2c"
  top: "res2b_branch2c"
  param {
    lr_mult: 0
  }
  param {
    lr_mult: 0
  }
  scale_param {
    bias_term: true
  }
}
layer {
  name: "res2b"
  type: "Eltwise"
  bottom: "res2a"
  bottom: "res2b_branch2c"
  top: "res2b"
  eltwise_param {
    operation: SUM
  }
}
layer {
  name: "res2b_relu"
  type: "ReLU"
  bottom: "res2b"
  top: "res2b"
}
layer {
  name: "res2c_branch2a"
  type: "Convolution"
  bottom: "res2b"
  top: "res2c_branch2a"
  convolution_param {
    num_output: 64
    bias_term: false
    pad: 0
    kernel_size: 1
    stride: 1
  }
}
layer {
  name: "bn2c_branch2a"
  type: "BatchNorm"
  bottom: "res2c_branch2a"
  top: "res2c_branch2a"
  param {
    lr_mult: 0
  }
  param {
    lr_mult: 0
  }
  param {
    lr_mult: 0
  }
  batch_norm_param {
    use_global_stats: true
  }
}
layer {
  name: "scale2c_branch2a"
  type: "Scale"
  bottom: "res2c_branch2a"
  top: "res2c_branch2a"
  param {
    lr_mult: 0
  }
  param {
    lr_mult: 0
  }
  scale_param {
    bias_term: true
  }
}
layer {
  name: "res2c_branch2a_relu"
  type: "ReLU"
  bottom: "res2c_branch2a"
  top: "res2c_branch2a"
}
layer {
  name: "res2c_branch2b"
  type: "Convolution"
  bottom: "res2c_branch2a"
  top: "res2c_branch2b"
  convolution_param {
    num_output: 64
    bias_term: false
    pad: 1
    kernel_size: 3
    stride: 1
  }
}
layer {
  name: "bn2c_branch2b"
  type: "BatchNorm"
  bottom: "res2c_branch2b"
  top: "res2c_branch2b"
  param {
    lr_mult: 0
  }
  param {
    lr_mult: 0
  }
  param {
    lr_mult: 0
  }
  batch_norm_param {
    use_global_stats: true
  }
}
layer {
  name: "scale2c_branch2b"
  type: "Scale"
  bottom: "res2c_branch2b"
  top: "res2c_branch2b"
  param {
    lr_mult: 0
  }
  param {
    lr_mult: 0
  }
  scale_param {
    bias_term: true
  }
}
layer {
  name: "res2c_branch2b_relu"
  type: "ReLU"
  bottom: "res2c_branch2b"
  top: "res2c_branch2b"
}
layer {
  name: "res2c_branch2c"
  type: "Convolution"
  bottom: "res2c_branch2b"
  top: "res2c_branch2c"
  convolution_param {
    num_output: 256
    bias_term: false
    pad: 0
    kernel_size: 1
    stride: 1
  }
}
layer {
  name: "bn2c_branch2c"
  type: "BatchNorm"
  bottom: "res2c_branch2c"
  top: "res2c_branch2c"
  param {
    lr_mult: 0
  }
  param {
    lr_mult: 0
  }
  param {
    lr_mult: 0
  }
  batch_norm_param {
    use_global_stats: true
  }
}
layer {
  name: "scale2c_branch2c"
  type: "Scale"
  bottom: "res2c_branch2c"
  top: "res2c_branch2c"
  param {
    lr_mult: 0
  }
  param {
    lr_mult: 0
  }
  scale_param {
    bias_term: true
  }
}
layer {
  name: "res2c"
  type: "Eltwise"
  bottom: "res2b"
  bottom: "res2c_branch2c"
  top: "res2c"
  eltwise_param {
    operation: SUM
  }
}
layer {
  name: "res2c_relu"
  type: "ReLU"
  bottom: "res2c"
  top: "res2c"
}
layer {
  name: "res3a_branch1"
  type: "Convolution"
  bottom: "res2c"
  top: "res3a_branch1"
  convolution_param {
    num_output: 512
    bias_term: false
    pad: 0
    kernel_size: 1
    stride: 2
  }
}
layer {
  name: "bn3a_branch1"
  type: "BatchNorm"
  bottom: "res3a_branch1"
  top: "res3a_branch1"
  param {
    lr_mult: 0
  }
  param {
    lr_mult: 0
  }
  param {
    lr_mult: 0
  }
  batch_norm_param {
    use_global_stats: true
  }
}
layer {
  name: "scale3a_branch1"
  type: "Scale"
  bottom: "res3a_branch1"
  top: "res3a_branch1"
  param {
    lr_mult: 0
  }
  param {
    lr_mult: 0
  }
  scale_param {
    bias_term: true
  }
}
layer {
  name: "res3a_branch2a"
  type: "Convolution"
  bottom: "res2c"
  top: "res3a_branch2a"
  convolution_param {
    num_output: 128
    bias_term: false
    pad: 0
    kernel_size: 1
    stride: 2
  }
}
layer {
  name: "bn3a_branch2a"
  type: "BatchNorm"
  bottom: "res3a_branch2a"
  top: "res3a_branch2a"
  param {
    lr_mult: 0
  }
  param {
    lr_mult: 0
  }
  param {
    lr_mult: 0
  }
  batch_norm_param {
    use_global_stats: true
  }
}
layer {
  name: "scale3a_branch2a"
  type: "Scale"
  bottom: "res3a_branch2a"
  top: "res3a_branch2a"
  param {
    lr_mult: 0
  }
  param {
    lr_mult: 0
  }
  scale_param {
    bias_term: true
  }
}
layer {
  name: "res3a_branch2a_relu"
  type: "ReLU"
  bottom: "res3a_branch2a"
  top: "res3a_branch2a"
}
layer {
  name: "res3a_branch2b"
  type: "Convolution"
  bottom: "res3a_branch2a"
  top: "res3a_branch2b"
  convolution_param {
    num_output: 128
    bias_term: false
    pad: 1
    kernel_size: 3
    stride: 1
  }
}
layer {
  name: "bn3a_branch2b"
  type: "BatchNorm"
  bottom: "res3a_branch2b"
  top: "res3a_branch2b"
  param {
    lr_mult: 0
  }
  param {
    lr_mult: 0
  }
  param {
    lr_mult: 0
  }
  batch_norm_param {
    use_global_stats: true
  }
}
layer {
  name: "scale3a_branch2b"
  type: "Scale"
  bottom: "res3a_branch2b"
  top: "res3a_branch2b"
  param {
    lr_mult: 0
  }
  param {
    lr_mult: 0
  }
  scale_param {
    bias_term: true
  }
}
layer {
  name: "res3a_branch2b_relu"
  type: "ReLU"
  bottom: "res3a_branch2b"
  top: "res3a_branch2b"
}
layer {
  name: "res3a_branch2c"
  type: "Convolution"
  bottom: "res3a_branch2b"
  top: "res3a_branch2c"
  convolution_param {
    num_output: 512
    bias_term: false
    pad: 0
    kernel_size: 1
    stride: 1
  }
}
layer {
  name: "bn3a_branch2c"
  type: "BatchNorm"
  bottom: "res3a_branch2c"
  top: "res3a_branch2c"
  param {
    lr_mult: 0
  }
  param {
    lr_mult: 0
  }
  param {
    lr_mult: 0
  }
  batch_norm_param {
    use_global_stats: true
  }
}
layer {
  name: "scale3a_branch2c"
  type: "Scale"
  bottom: "res3a_branch2c"
  top: "res3a_branch2c"
  param {
    lr_mult: 0
  }
  param {
    lr_mult: 0
  }
  scale_param {
    bias_term: true
  }
}
layer {
  name: "res3a"
  type: "Eltwise"
  bottom: "res3a_branch1"
  bottom: "res3a_branch2c"
  top: "res3a"
  eltwise_param {
    operation: SUM
  }
}
layer {
  name: "res3a_relu"
  type: "ReLU"
  bottom: "res3a"
  top: "res3a"
}
layer {
  name: "res3b_branch2a"
  type: "Convolution"
  bottom: "res3a"
  top: "res3b_branch2a"
  convolution_param {
    num_output: 128
    bias_term: false
    pad: 0
    kernel_size: 1
    stride: 1
  }
}
layer {
  name: "bn3b_branch2a"
  type: "BatchNorm"
  bottom: "res3b_branch2a"
  top: "res3b_branch2a"
  param {
    lr_mult: 0
  }
  param {
    lr_mult: 0
  }
  param {
    lr_mult: 0
  }
  batch_norm_param {
    use_global_stats: true
  }
}
layer {
  name: "scale3b_branch2a"
  type: "Scale"
  bottom: "res3b_branch2a"
  top: "res3b_branch2a"
  param {
    lr_mult: 0
  }
  param {
    lr_mult: 0
  }
  scale_param {
    bias_term: true
  }
}
layer {
  name: "res3b_branch2a_relu"
  type: "ReLU"
  bottom: "res3b_branch2a"
  top: "res3b_branch2a"
}
layer {
  name: "res3b_branch2b"
  type: "Convolution"
  bottom: "res3b_branch2a"
  top: "res3b_branch2b"
  convolution_param {
    num_output: 128
    bias_term: false
    pad: 1
    kernel_size: 3
    stride: 1
  }
}
layer {
  name: "bn3b_branch2b"
  type: "BatchNorm"
  bottom: "res3b_branch2b"
  top: "res3b_branch2b"
  param {
    lr_mult: 0
  }
  param {
    lr_mult: 0
  }
  param {
    lr_mult: 0
  }
  batch_norm_param {
    use_global_stats: true
  }
}
layer {
  name: "scale3b_branch2b"
  type: "Scale"
  bottom: "res3b_branch2b"
  top: "res3b_branch2b"
  param {
    lr_mult: 0
  }
  param {
    lr_mult: 0
  }
  scale_param {
    bias_term: true
  }
}
layer {
  name: "res3b_branch2b_relu"
  type: "ReLU"
  bottom: "res3b_branch2b"
  top: "res3b_branch2b"
}
layer {
  name: "res3b_branch2c"
  type: "Convolution"
  bottom: "res3b_branch2b"
  top: "res3b_branch2c"
  convolution_param {
    num_output: 512
    bias_term: false
    pad: 0
    kernel_size: 1
    stride: 1
  }
}
layer {
  name: "bn3b_branch2c"
  type: "BatchNorm"
  bottom: "res3b_branch2c"
  top: "res3b_branch2c"
  param {
    lr_mult: 0
  }
  param {
    lr_mult: 0
  }
  param {
    lr_mult: 0
  }
  batch_norm_param {
    use_global_stats: true
  }
}
layer {
  name: "scale3b_branch2c"
  type: "Scale"
  bottom: "res3b_branch2c"
  top: "res3b_branch2c"
  param {
    lr_mult: 0
  }
  param {
    lr_mult: 0
  }
  scale_param {
    bias_term: true
  }
}
layer {
  name: "res3b"
  type: "Eltwise"
  bottom: "res3a"
  bottom: "res3b_branch2c"
  top: "res3b"
  eltwise_param {
    operation: SUM
  }
}
layer {
  name: "res3b_relu"
  type: "ReLU"
  bottom: "res3b"
  top: "res3b"
}
layer {
  name: "res3c_branch2a"
  type: "Convolution"
  bottom: "res3b"
  top: "res3c_branch2a"
  convolution_param {
    num_output: 128
    bias_term: false
    pad: 0
    kernel_size: 1
    stride: 1
  }
}
layer {
  name: "bn3c_branch2a"
  type: "BatchNorm"
  bottom: "res3c_branch2a"
  top: "res3c_branch2a"
  param {
    lr_mult: 0
  }
  param {
    lr_mult: 0
  }
  param {
    lr_mult: 0
  }
  batch_norm_param {
    use_global_stats: true
  }
}
layer {
  name: "scale3c_branch2a"
  type: "Scale"
  bottom: "res3c_branch2a"
  top: "res3c_branch2a"
  param {
    lr_mult: 0
  }
  param {
    lr_mult: 0
  }
  scale_param {
    bias_term: true
  }
}
layer {
  name: "res3c_branch2a_relu"
  type: "ReLU"
  bottom: "res3c_branch2a"
  top: "res3c_branch2a"
}
layer {
  name: "res3c_branch2b"
  type: "Convolution"
  bottom: "res3c_branch2a"
  top: "res3c_branch2b"
  convolution_param {
    num_output: 128
    bias_term: false
    pad: 1
    kernel_size: 3
    stride: 1
  }
}
layer {
  name: "bn3c_branch2b"
  type: "BatchNorm"
  bottom: "res3c_branch2b"
  top: "res3c_branch2b"
  param {
    lr_mult: 0
  }
  param {
    lr_mult: 0
  }
  param {
    lr_mult: 0
  }
  batch_norm_param {
    use_global_stats: true
  }
}
layer {
  name: "scale3c_branch2b"
  type: "Scale"
  bottom: "res3c_branch2b"
  top: "res3c_branch2b"
  param {
    lr_mult: 0
  }
  param {
    lr_mult: 0
  }
  scale_param {
    bias_term: true
  }
}
layer {
  name: "res3c_branch2b_relu"
  type: "ReLU"
  bottom: "res3c_branch2b"
  top: "res3c_branch2b"
}
layer {
  name: "res3c_branch2c"
  type: "Convolution"
  bottom: "res3c_branch2b"
  top: "res3c_branch2c"
  convolution_param {
    num_output: 512
    bias_term: false
    pad: 0
    kernel_size: 1
    stride: 1
  }
}
layer {
  name: "bn3c_branch2c"
  type: "BatchNorm"
  bottom: "res3c_branch2c"
  top: "res3c_branch2c"
  param {
    lr_mult: 0
  }
  param {
    lr_mult: 0
  }
  param {
    lr_mult: 0
  }
  batch_norm_param {
    use_global_stats: true
  }
}
layer {
  name: "scale3c_branch2c"
  type: "Scale"
  bottom: "res3c_branch2c"
  top: "res3c_branch2c"
  param {
    lr_mult: 0
  }
  param {
    lr_mult: 0
  }
  scale_param {
    bias_term: true
  }
}
layer {
  name: "res3c"
  type: "Eltwise"
  bottom: "res3b"
  bottom: "res3c_branch2c"
  top: "res3c"
  eltwise_param {
    operation: SUM
  }
}
layer {
  name: "res3c_relu"
  type: "ReLU"
  bottom: "res3c"
  top: "res3c"
}
layer {
  name: "res3d_branch2a"
  type: "Convolution"
  bottom: "res3c"
  top: "res3d_branch2a"
  convolution_param {
    num_output: 128
    bias_term: false
    pad: 0
    kernel_size: 1
    stride: 1
  }
}
layer {
  name: "bn3d_branch2a"
  type: "BatchNorm"
  bottom: "res3d_branch2a"
  top: "res3d_branch2a"
  param {
    lr_mult: 0
  }
  param {
    lr_mult: 0
  }
  param {
    lr_mult: 0
  }
  batch_norm_param {
    use_global_stats: true
  }
}
layer {
  name: "scale3d_branch2a"
  type: "Scale"
  bottom: "res3d_branch2a"
  top: "res3d_branch2a"
  param {
    lr_mult: 0
  }
  param {
    lr_mult: 0
  }
  scale_param {
    bias_term: true
  }
}
layer {
  name: "res3d_branch2a_relu"
  type: "ReLU"
  bottom: "res3d_branch2a"
  top: "res3d_branch2a"
}
layer {
  name: "res3d_branch2b"
  type: "Convolution"
  bottom: "res3d_branch2a"
  top: "res3d_branch2b"
  convolution_param {
    num_output: 128
    bias_term: false
    pad: 1
    kernel_size: 3
    stride: 1
  }
}
layer {
  name: "bn3d_branch2b"
  type: "BatchNorm"
  bottom: "res3d_branch2b"
  top: "res3d_branch2b"
  param {
    lr_mult: 0
  }
  param {
    lr_mult: 0
  }
  param {
    lr_mult: 0
  }
  batch_norm_param {
    use_global_stats: true
  }
}
layer {
  name: "scale3d_branch2b"
  type: "Scale"
  bottom: "res3d_branch2b"
  top: "res3d_branch2b"
  param {
    lr_mult: 0
  }
  param {
    lr_mult: 0
  }
  scale_param {
    bias_term: true
  }
}
layer {
  name: "res3d_branch2b_relu"
  type: "ReLU"
  bottom: "res3d_branch2b"
  top: "res3d_branch2b"
}
layer {
  name: "res3d_branch2c"
  type: "Convolution"
  bottom: "res3d_branch2b"
  top: "res3d_branch2c"
  convolution_param {
    num_output: 512
    bias_term: false
    pad: 0
    kernel_size: 1
    stride: 1
  }
}
layer {
  name: "bn3d_branch2c"
  type: "BatchNorm"
  bottom: "res3d_branch2c"
  top: "res3d_branch2c"
  param {
    lr_mult: 0
  }
  param {
    lr_mult: 0
  }
  param {
    lr_mult: 0
  }
  batch_norm_param {
    use_global_stats: true
  }
}
layer {
  name: "scale3d_branch2c"
  type: "Scale"
  bottom: "res3d_branch2c"
  top: "res3d_branch2c"
  param {
    lr_mult: 0
  }
  param {
    lr_mult: 0
  }
  scale_param {
    bias_term: true
  }
}
layer {
  name: "res3d"
  type: "Eltwise"
  bottom: "res3c"
  bottom: "res3d_branch2c"
  top: "res3d"
  eltwise_param {
    operation: SUM
  }
}
layer {
  name: "res3d_relu"
  type: "ReLU"
  bottom: "res3d"
  top: "res3d"
}


########## attention branch #############
layer {
  name: "res4a_branch1_att"
  type: "Convolution"
  bottom: "res3d"
  top: "res4a_branch1_att"
  convolution_param {
    num_output: 1024
    bias_term: false
    pad: 0
    kernel_size: 1
    stride: 2
  }
}
layer {
  name: "scale4a_branch1_att"
  type: "Scale"
  bottom: "res4a_branch1_att"
  top: "res4a_branch1_att"
  scale_param {
    bias_term: true
  }
}
layer {
  name: "res4a_branch2a_att"
  type: "Convolution"
  bottom: "res3d"
  top: "res4a_branch2a_att"
  convolution_param {
    num_output: 256
    bias_term: false
    pad: 0
    kernel_size: 1
    stride: 2
  }
}
layer {
  name: "scale4a_branch2a_att"
  type: "Scale"
  bottom: "res4a_branch2a_att"
  top: "res4a_branch2a_att"
  scale_param {
    bias_term: true
  }
}
layer {
  name: "res4a_branch2a_relu_att"
  type: "ReLU"
  bottom: "res4a_branch2a_att"
  top: "res4a_branch2a_att"
}
layer {
  name: "res4a_branch2b_att"
  type: "Convolution"
  bottom: "res4a_branch2a_att"
  top: "res4a_branch2b_att"
  convolution_param {
    num_output: 256
    bias_term: false
    pad: 1
    kernel_size: 3
    stride: 1
  }
}
layer {
  name: "scale4a_branch2b_att"
  type: "Scale"
  bottom: "res4a_branch2b_att"
  top: "res4a_branch2b_att"
  scale_param {
    bias_term: true
  }
}
layer {
  name: "res4a_branch2b_relu_att"
  type: "ReLU"
  bottom: "res4a_branch2b_att"
  top: "res4a_branch2b_att"
}
layer {
  name: "res4a_branch2c_att"
  type: "Convolution"
  bottom: "res4a_branch2b_att"
  top: "res4a_branch2c_att"
  convolution_param {
    num_output: 1024
    bias_term: false
    pad: 0
    kernel_size: 1
    stride: 1
  }
}
layer {
  name: "scale4a_branch2c_att"
  type: "Scale"
  bottom: "res4a_branch2c_att"
  top: "res4a_branch2c_att"
  scale_param {
    bias_term: true
  }
}
layer {
  name: "res4a_att"
  type: "Eltwise"
  bottom: "res4a_branch1_att"
  bottom: "res4a_branch2c_att"
  top: "res4a_att"
  eltwise_param {
    operation: SUM
  }
}
layer {
  name: "res4a_relu_att"
  type: "ReLU"
  bottom: "res4a_att"
  top: "res4a_att"
}
layer {
  name: "res4b_branch2a_att"
  type: "Convolution"
  bottom: "res4a_att"
  top: "res4b_branch2a_att"
  convolution_param {
    num_output: 256
    bias_term: false
    pad: 0
    kernel_size: 1
    stride: 1
  }
}
layer {
  name: "scale4b_branch2a_att"
  type: "Scale"
  bottom: "res4b_branch2a_att"
  top: "res4b_branch2a_att"
  scale_param {
    bias_term: true
  }
}
layer {
  name: "res4b_branch2a_relu_att"
  type: "ReLU"
  bottom: "res4b_branch2a_att"
  top: "res4b_branch2a_att"
}
layer {
  name: "res4b_branch2b_att"
  type: "Convolution"
  bottom: "res4b_branch2a_att"
  top: "res4b_branch2b_att"
  convolution_param {
    num_output: 256
    bias_term: false
    pad: 1
    kernel_size: 3
    stride: 1
  }
}
layer {
  name: "scale4b_branch2b_att"
  type: "Scale"
  bottom: "res4b_branch2b_att"
  top: "res4b_branch2b_att"
  scale_param {
    bias_term: true
  }
}
layer {
  name: "res4b_branch2b_relu_att"
  type: "ReLU"
  bottom: "res4b_branch2b_att"
  top: "res4b_branch2b_att"
}
layer {
  name: "res4b_branch2c_att"
  type: "Convolution"
  bottom: "res4b_branch2b_att"
  top: "res4b_branch2c_att"
  convolution_param {
    num_output: 1024
    bias_term: false
    pad: 0
    kernel_size: 1
    stride: 1
  }
}
layer {
  name: "scale4b_branch2c_att"
  type: "Scale"
  bottom: "res4b_branch2c_att"
  top: "res4b_branch2c_att"
  scale_param {
    bias_term: true
  }
}
layer {
  name: "res4b_att"
  type: "Eltwise"
  bottom: "res4a_att"
  bottom: "res4b_branch2c_att"
  top: "res4b_att"
  eltwise_param {
    operation: SUM
  }
}
layer {
  name: "res4b_relu_att"
  type: "ReLU"
  bottom: "res4b_att"
  top: "res4b_att"
}
layer {
  name: "res4c_branch2a_att"
  type: "Convolution"
  bottom: "res4b_att"
  top: "res4c_branch2a_att"
  convolution_param {
    num_output: 256
    bias_term: false
    pad: 0
    kernel_size: 1
    stride: 1
  }
}
layer {
  name: "scale4c_branch2a_att"
  type: "Scale"
  bottom: "res4c_branch2a_att"
  top: "res4c_branch2a_att"
  scale_param {
    bias_term: true
  }
}
layer {
  name: "res4c_branch2a_relu_att"
  type: "ReLU"
  bottom: "res4c_branch2a_att"
  top: "res4c_branch2a_att"
}
layer {
  name: "res4c_branch2b_att"
  type: "Convolution"
  bottom: "res4c_branch2a_att"
  top: "res4c_branch2b_att"
  convolution_param {
    num_output: 256
    bias_term: false
    pad: 1
    kernel_size: 3
    stride: 1
  }
}
layer {
  name: "scale4c_branch2b_att"
  type: "Scale"
  bottom: "res4c_branch2b_att"
  top: "res4c_branch2b_att"
  scale_param {
    bias_term: true
  }
}
layer {
  name: "res4c_branch2b_relu_att"
  type: "ReLU"
  bottom: "res4c_branch2b_att"
  top: "res4c_branch2b_att"
}
layer {
  name: "res4c_branch2c_att"
  type: "Convolution"
  bottom: "res4c_branch2b_att"
  top: "res4c_branch2c_att"
  convolution_param {
    num_output: 1024
    bias_term: false
    pad: 0
    kernel_size: 1
    stride: 1
  }
}
layer {
  name: "scale4c_branch2c_att"
  type: "Scale"
  bottom: "res4c_branch2c_att"
  top: "res4c_branch2c_att"
  scale_param {
    bias_term: true
  }
}
layer {
  name: "res4c_att"
  type: "Eltwise"
  bottom: "res4b_att"
  bottom: "res4c_branch2c_att"
  top: "res4c_att"
  eltwise_param {
    operation: SUM
  }
}
layer {
  name: "res4c_relu_att"
  type: "ReLU"
  bottom: "res4c_att"
  top: "res4c_att"
}
layer {
  name: "res4d_branch2a_att"
  type: "Convolution"
  bottom: "res4c_att"
  top: "res4d_branch2a_att"
  convolution_param {
    num_output: 256
    bias_term: false
    pad: 0
    kernel_size: 1
    stride: 1
  }
}
layer {
  name: "scale4d_branch2a_att"
  type: "Scale"
  bottom: "res4d_branch2a_att"
  top: "res4d_branch2a_att"
  scale_param {
    bias_term: true
  }
}
layer {
  name: "res4d_branch2a_relu_att"
  type: "ReLU"
  bottom: "res4d_branch2a_att"
  top: "res4d_branch2a_att"
}
layer {
  name: "res4d_branch2b_att"
  type: "Convolution"
  bottom: "res4d_branch2a_att"
  top: "res4d_branch2b_att"
  convolution_param {
    num_output: 256
    bias_term: false
    pad: 1
    kernel_size: 3
    stride: 1
  }
}
layer {
  name: "scale4d_branch2b_att"
  type: "Scale"
  bottom: "res4d_branch2b_att"
  top: "res4d_branch2b_att"
  scale_param {
    bias_term: true
  }
}
layer {
  name: "res4d_branch2b_relu_att"
  type: "ReLU"
  bottom: "res4d_branch2b_att"
  top: "res4d_branch2b_att"
}
layer {
  name: "res4d_branch2c_att"
  type: "Convolution"
  bottom: "res4d_branch2b_att"
  top: "res4d_branch2c_att"
  convolution_param {
    num_output: 1024
    bias_term: false
    pad: 0
    kernel_size: 1
    stride: 1
  }
}
layer {
  name: "scale4d_branch2c_att"
  type: "Scale"
  bottom: "res4d_branch2c_att"
  top: "res4d_branch2c_att"
  scale_param {
    bias_term: true
  }
}
layer {
  name: "res4d_att"
  type: "Eltwise"
  bottom: "res4c_att"
  bottom: "res4d_branch2c_att"
  top: "res4d_att"
  eltwise_param {
    operation: SUM
  }
}
layer {
  name: "res4d_relu_att"
  type: "ReLU"
  bottom: "res4d_att"
  top: "res4d_att"
}
layer {
  name: "res4e_branch2a_att"
  type: "Convolution"
  bottom: "res4d_att"
  top: "res4e_branch2a_att"
  convolution_param {
    num_output: 256
    bias_term: false
    pad: 0
    kernel_size: 1
    stride: 1
  }
}
layer {
  name: "scale4e_branch2a_att"
  type: "Scale"
  bottom: "res4e_branch2a_att"
  top: "res4e_branch2a_att"
  scale_param {
    bias_term: true
  }
}
layer {
  name: "res4e_branch2a_relu_att"
  type: "ReLU"
  bottom: "res4e_branch2a_att"
  top: "res4e_branch2a_att"
}
layer {
  name: "res4e_branch2b_att"
  type: "Convolution"
  bottom: "res4e_branch2a_att"
  top: "res4e_branch2b_att"
  convolution_param {
    num_output: 256
    bias_term: false
    pad: 1
    kernel_size: 3
    stride: 1
  }
}
layer {
  name: "scale4e_branch2b_att"
  type: "Scale"
  bottom: "res4e_branch2b_att"
  top: "res4e_branch2b_att"
  scale_param {
    bias_term: true
  }
}
layer {
  name: "res4e_branch2b_relu_att"
  type: "ReLU"
  bottom: "res4e_branch2b_att"
  top: "res4e_branch2b_att"
}
layer {
  name: "res4e_branch2c_att"
  type: "Convolution"
  bottom: "res4e_branch2b_att"
  top: "res4e_branch2c_att"
  convolution_param {
    num_output: 1024
    bias_term: false
    pad: 0
    kernel_size: 1
    stride: 1
  }
}
layer {
  name: "scale4e_branch2c_att"
  type: "Scale"
  bottom: "res4e_branch2c_att"
  top: "res4e_branch2c_att"
  scale_param {
    bias_term: true
  }
}
layer {
  name: "res4e_att"
  type: "Eltwise"
  bottom: "res4d_att"
  bottom: "res4e_branch2c_att"
  top: "res4e_att"
  eltwise_param {
    operation: SUM
  }
}
layer {
  name: "res4e_relu_att"
  type: "ReLU"
  bottom: "res4e_att"
  top: "res4e_att"
}

layer { name: 'upscore' type: "Deconvolution" bottom: "res4e_att" top: "deconv_att" 
  convolution_param { num_output: 1024 bias_term: false kernel_size: 4 stride: 2 pad: 1 } }

layer {
  name: "res4f_branch2a_att"
  type: "Convolution"
  bottom: "deconv_att"
  top: "res4f_branch2a_att"
  convolution_param {
    num_output: 256
    bias_term: false
    pad: 0
    kernel_size: 1
    stride: 1
  }
}
layer {
  name: "scale4f_branch2a_att"
  type: "Scale"
  bottom: "res4f_branch2a_att"
  top: "res4f_branch2a_att"
  scale_param {
    bias_term: true
  }
}
layer {
  name: "res4f_branch2a_relu_att"
  type: "ReLU"
  bottom: "res4f_branch2a_att"
  top: "res4f_branch2a_att"
}
layer {
  name: "res4f_branch2b_att"
  type: "Convolution"
  bottom: "res4f_branch2a_att"
  top: "res4f_branch2b_att"
  convolution_param {
    num_output: 256
    bias_term: false
    pad: 1
    kernel_size: 3
    stride: 1
  }
}
layer {
  name: "scale4f_branch2b_att"
  type: "Scale"
  bottom: "res4f_branch2b_att"
  top: "res4f_branch2b_att"
  scale_param {
    bias_term: true
  }
}
layer {
  name: "res4f_branch2b_relu_att"
  type: "ReLU"
  bottom: "res4f_branch2b_att"
  top: "res4f_branch2b_att"
}
layer {
  name: "res4f_branch2c_att"
  type: "Convolution"
  bottom: "res4f_branch2b_att"
  top: "res4f_branch2c_att"
  convolution_param {
    num_output: 1024
    bias_term: false
    pad: 0
    kernel_size: 1
    stride: 1
  }
}
layer {
  name: "scale4f_branch2c_att"
  type: "Scale"
  bottom: "res4f_branch2c_att"
  top: "res4f_branch2c_att"
  scale_param {
    bias_term: true
  }
}
layer {
  name: "res4f_att"
  type: "Eltwise"
  bottom: "deconv_att"
  bottom: "res4f_branch2c_att"
  top: "bu_att"
  eltwise_param {
    operation: SUM
  }
}
layer {
  name: "res4f_relu_att"
  type: "ReLU"
  bottom: "bu_att"
  top: "bu_att"
}



layer {
  name: "256D_att"
  type: "Convolution"
  bottom: "bu_att"
  top: "256D_bu_att"
  convolution_param {
    num_output: 256
    bias_term: false
    pad: 0
    kernel_size: 1
    stride: 1
  }
}

layer {
  name: "scale_256_att"
  type: "Scale"
  bottom: "256D_bu_att"
  top: "256D_bu_att"
  scale_param {
    bias_term: true
  }
}
layer {
  name: "relu:256D_att"
  type: "ReLU"
  bottom: "256D_bu_att"
  top: "256D_bu_att"
}

layer {
  name: "64D_att"
  type: "Convolution"
  bottom: "256D_bu_att"
  top: "64D_bu_att"
  convolution_param {
    num_output: 64
    bias_term: false
    pad: 0
    kernel_size: 1
    stride: 1
  }
}
layer {
  name: "scale_64D_att"
  type: "Scale"
  bottom: "64D_bu_att"
  top: "64D_bu_att"
  scale_param {
    bias_term: true
  }
}
layer {
  name: "relu:64D_att"
  type: "ReLU"
  bottom: "64D_bu_att"
  top: "64D_bu_att"
}

layer {
  name: "16D_att"
  type: "Convolution"
  bottom: "64D_bu_att"
  top: "16D_bu_att"
  convolution_param {
    num_output: 16
    bias_term: false
    pad: 0
    kernel_size: 1
    stride: 1
  }
}
layer {
  name: "scale_16D_att"
  type: "Scale"
  bottom: "16D_bu_att"
  top: "16D_bu_att"
  scale_param {
    bias_term: true
  }
}
layer {
  name: "relu:16D_att"
  type: "ReLU"
  bottom: "16D_bu_att"
  top: "16D_bu_att"
}

layer {
  name: "4D_att"
  type: "Convolution"
  bottom: "16D_bu_att"
  top: "4D_bu_att"
  convolution_param {
    num_output: 4
    bias_term: false
    pad: 0
    kernel_size: 1
    stride: 1
  }
}
layer {
  name: "scale_4D_att"
  type: "Scale"
  bottom: "4D_bu_att"
  top: "4D_bu_att"
  scale_param {
    bias_term: true
  }
}
layer {
  name: "relu:4D_att"
  type: "ReLU"
  bottom: "4D_bu_att"
  top: "4D_bu_att"
}


layer {
  name: "1D_att"
  type: "Convolution"
  bottom: "4D_bu_att"
  top: "1D_bu_att"
  convolution_param {
    num_output: 1
    bias_term: false
    pad: 0
    kernel_size: 1
    stride: 1
  }
}
layer {
  name: "scale_1D_att"
  type: "Scale"
  bottom: "1D_bu_att"
  top: "1D_bu_att"
  scale_param {
    bias_term: true
  }
}
layer {
  name: "relu:1D_att"
  type: "ReLU"
  bottom: "1D_bu_att"
  top: "1D_bu_att"
}


layer { name: "loss_bu_att" type: "NormalizedSigmoidCrossEntropyLoss" bottom: "1D_bu_att" bottom: "bu_att_mask" propagate_down: true propagate_down: false top: "loss_bu_atts" loss_weight: 1}

