name: 'Single Shot Mask - ResNet 50'

layer {
  name: "data"
  type: "Input"
  top: "data"
  input_param {
    shape {
      dim: 1
      dim: 3
      dim: 224
      dim: 224
    }
  }
}
layer {
  name: "conv1"
  type: "Convolution"
  bottom: "data"
  top: "conv1"
  convolution_param {
    num_output: 64
    pad: 3
    kernel_size: 7
    stride: 2
  }
}
layer {
  name: "bn_conv1"
  type: "BatchNorm"
  bottom: "conv1"
  top: "conv1"
  param {
    lr_mult: 0
  }
  param {
    lr_mult: 0
  }
  param {
    lr_mult: 0
  }
  batch_norm_param {
    use_global_stats: true
  }
}
layer {
  name: "scale_conv1"
  type: "Scale"
  bottom: "conv1"
  top: "conv1"
  param {
    lr_mult: 0
  }
  param {
    lr_mult: 0
  }
  scale_param {
    bias_term: true
  }
}
layer {
  name: "conv1_relu"
  type: "ReLU"
  bottom: "conv1"
  top: "conv1"
}
layer {
  name: "pool1"
  type: "Pooling"
  bottom: "conv1"
  top: "pool1"
  pooling_param {
    pool: MAX
    kernel_size: 3
    stride: 2
  }
}
layer {
  name: "res2a_branch1"
  type: "Convolution"
  bottom: "pool1"
  top: "res2a_branch1"
  convolution_param {
    num_output: 256
    bias_term: false
    pad: 0
    kernel_size: 1
    stride: 1
  }
}
layer {
  name: "bn2a_branch1"
  type: "BatchNorm"
  bottom: "res2a_branch1"
  top: "res2a_branch1"
  param {
    lr_mult: 0
  }
  param {
    lr_mult: 0
  }
  param {
    lr_mult: 0
  }
  batch_norm_param {
    use_global_stats: true
  }
}
layer {
  name: "scale2a_branch1"
  type: "Scale"
  bottom: "res2a_branch1"
  top: "res2a_branch1"
  param {
    lr_mult: 0
  }
  param {
    lr_mult: 0
  }
  scale_param {
    bias_term: true
  }
}
layer {
  name: "res2a_branch2a"
  type: "Convolution"
  bottom: "pool1"
  top: "res2a_branch2a"
  convolution_param {
    num_output: 64
    bias_term: false
    pad: 0
    kernel_size: 1
    stride: 1
  }
}
layer {
  name: "bn2a_branch2a"
  type: "BatchNorm"
  bottom: "res2a_branch2a"
  top: "res2a_branch2a"
  param {
    lr_mult: 0
  }
  param {
    lr_mult: 0
  }
  param {
    lr_mult: 0
  }
  batch_norm_param {
    use_global_stats: true
  }
}
layer {
  name: "scale2a_branch2a"
  type: "Scale"
  bottom: "res2a_branch2a"
  top: "res2a_branch2a"
  param {
    lr_mult: 0
  }
  param {
    lr_mult: 0
  }
  scale_param {
    bias_term: true
  }
}
layer {
  name: "res2a_branch2a_relu"
  type: "ReLU"
  bottom: "res2a_branch2a"
  top: "res2a_branch2a"
}
layer {
  name: "res2a_branch2b"
  type: "Convolution"
  bottom: "res2a_branch2a"
  top: "res2a_branch2b"
  convolution_param {
    num_output: 64
    bias_term: false
    pad: 1
    kernel_size: 3
    stride: 1
  }
}
layer {
  name: "bn2a_branch2b"
  type: "BatchNorm"
  bottom: "res2a_branch2b"
  top: "res2a_branch2b"
  param {
    lr_mult: 0
  }
  param {
    lr_mult: 0
  }
  param {
    lr_mult: 0
  }
  batch_norm_param {
    use_global_stats: true
  }
}
layer {
  name: "scale2a_branch2b"
  type: "Scale"
  bottom: "res2a_branch2b"
  top: "res2a_branch2b"
  param {
    lr_mult: 0
  }
  param {
    lr_mult: 0
  }
  scale_param {
    bias_term: true
  }
}
layer {
  name: "res2a_branch2b_relu"
  type: "ReLU"
  bottom: "res2a_branch2b"
  top: "res2a_branch2b"
}
layer {
  name: "res2a_branch2c"
  type: "Convolution"
  bottom: "res2a_branch2b"
  top: "res2a_branch2c"
  convolution_param {
    num_output: 256
    bias_term: false
    pad: 0
    kernel_size: 1
    stride: 1
  }
}
layer {
  name: "bn2a_branch2c"
  type: "BatchNorm"
  bottom: "res2a_branch2c"
  top: "res2a_branch2c"
  param {
    lr_mult: 0
  }
  param {
    lr_mult: 0
  }
  param {
    lr_mult: 0
  }
  batch_norm_param {
    use_global_stats: true
  }
}
layer {
  name: "scale2a_branch2c"
  type: "Scale"
  bottom: "res2a_branch2c"
  top: "res2a_branch2c"
  param {
    lr_mult: 0
  }
  param {
    lr_mult: 0
  }
  scale_param {
    bias_term: true
  }
}
layer {
  name: "res2a"
  type: "Eltwise"
  bottom: "res2a_branch1"
  bottom: "res2a_branch2c"
  top: "res2a"
  eltwise_param {
    operation: SUM
  }
}
layer {
  name: "res2a_relu"
  type: "ReLU"
  bottom: "res2a"
  top: "res2a"
}
layer {
  name: "res2b_branch2a"
  type: "Convolution"
  bottom: "res2a"
  top: "res2b_branch2a"
  convolution_param {
    num_output: 64
    bias_term: false
    pad: 0
    kernel_size: 1
    stride: 1
  }
}
layer {
  name: "bn2b_branch2a"
  type: "BatchNorm"
  bottom: "res2b_branch2a"
  top: "res2b_branch2a"
  param {
    lr_mult: 0
  }
  param {
    lr_mult: 0
  }
  param {
    lr_mult: 0
  }
  batch_norm_param {
    use_global_stats: true
  }
}
layer {
  name: "scale2b_branch2a"
  type: "Scale"
  bottom: "res2b_branch2a"
  top: "res2b_branch2a"
  param {
    lr_mult: 0
  }
  param {
    lr_mult: 0
  }
  scale_param {
    bias_term: true
  }
}
layer {
  name: "res2b_branch2a_relu"
  type: "ReLU"
  bottom: "res2b_branch2a"
  top: "res2b_branch2a"
}
layer {
  name: "res2b_branch2b"
  type: "Convolution"
  bottom: "res2b_branch2a"
  top: "res2b_branch2b"
  convolution_param {
    num_output: 64
    bias_term: false
    pad: 1
    kernel_size: 3
    stride: 1
  }
}
layer {
  name: "bn2b_branch2b"
  type: "BatchNorm"
  bottom: "res2b_branch2b"
  top: "res2b_branch2b"
  param {
    lr_mult: 0
  }
  param {
    lr_mult: 0
  }
  param {
    lr_mult: 0
  }
  batch_norm_param {
    use_global_stats: true
  }
}
layer {
  name: "scale2b_branch2b"
  type: "Scale"
  bottom: "res2b_branch2b"
  top: "res2b_branch2b"
  param {
    lr_mult: 0
  }
  param {
    lr_mult: 0
  }
  scale_param {
    bias_term: true
  }
}
layer {
  name: "res2b_branch2b_relu"
  type: "ReLU"
  bottom: "res2b_branch2b"
  top: "res2b_branch2b"
}
layer {
  name: "res2b_branch2c"
  type: "Convolution"
  bottom: "res2b_branch2b"
  top: "res2b_branch2c"
  convolution_param {
    num_output: 256
    bias_term: false
    pad: 0
    kernel_size: 1
    stride: 1
  }
}
layer {
  name: "bn2b_branch2c"
  type: "BatchNorm"
  bottom: "res2b_branch2c"
  top: "res2b_branch2c"
  param {
    lr_mult: 0
  }
  param {
    lr_mult: 0
  }
  param {
    lr_mult: 0
  }
  batch_norm_param {
    use_global_stats: true
  }
}
layer {
  name: "scale2b_branch2c"
  type: "Scale"
  bottom: "res2b_branch2c"
  top: "res2b_branch2c"
  param {
    lr_mult: 0
  }
  param {
    lr_mult: 0
  }
  scale_param {
    bias_term: true
  }
}
layer {
  name: "res2b"
  type: "Eltwise"
  bottom: "res2a"
  bottom: "res2b_branch2c"
  top: "res2b"
  eltwise_param {
    operation: SUM
  }
}
layer {
  name: "res2b_relu"
  type: "ReLU"
  bottom: "res2b"
  top: "res2b"
}
layer {
  name: "res2c_branch2a"
  type: "Convolution"
  bottom: "res2b"
  top: "res2c_branch2a"
  convolution_param {
    num_output: 64
    bias_term: false
    pad: 0
    kernel_size: 1
    stride: 1
  }
}
layer {
  name: "bn2c_branch2a"
  type: "BatchNorm"
  bottom: "res2c_branch2a"
  top: "res2c_branch2a"
  param {
    lr_mult: 0
  }
  param {
    lr_mult: 0
  }
  param {
    lr_mult: 0
  }
  batch_norm_param {
    use_global_stats: true
  }
}
layer {
  name: "scale2c_branch2a"
  type: "Scale"
  bottom: "res2c_branch2a"
  top: "res2c_branch2a"
  param {
    lr_mult: 0
  }
  param {
    lr_mult: 0
  }
  scale_param {
    bias_term: true
  }
}
layer {
  name: "res2c_branch2a_relu"
  type: "ReLU"
  bottom: "res2c_branch2a"
  top: "res2c_branch2a"
}
layer {
  name: "res2c_branch2b"
  type: "Convolution"
  bottom: "res2c_branch2a"
  top: "res2c_branch2b"
  convolution_param {
    num_output: 64
    bias_term: false
    pad: 1
    kernel_size: 3
    stride: 1
  }
}
layer {
  name: "bn2c_branch2b"
  type: "BatchNorm"
  bottom: "res2c_branch2b"
  top: "res2c_branch2b"
  param {
    lr_mult: 0
  }
  param {
    lr_mult: 0
  }
  param {
    lr_mult: 0
  }
  batch_norm_param {
    use_global_stats: true
  }
}
layer {
  name: "scale2c_branch2b"
  type: "Scale"
  bottom: "res2c_branch2b"
  top: "res2c_branch2b"
  param {
    lr_mult: 0
  }
  param {
    lr_mult: 0
  }
  scale_param {
    bias_term: true
  }
}
layer {
  name: "res2c_branch2b_relu"
  type: "ReLU"
  bottom: "res2c_branch2b"
  top: "res2c_branch2b"
}
layer {
  name: "res2c_branch2c"
  type: "Convolution"
  bottom: "res2c_branch2b"
  top: "res2c_branch2c"
  convolution_param {
    num_output: 256
    bias_term: false
    pad: 0
    kernel_size: 1
    stride: 1
  }
}
layer {
  name: "bn2c_branch2c"
  type: "BatchNorm"
  bottom: "res2c_branch2c"
  top: "res2c_branch2c"
  param {
    lr_mult: 0
  }
  param {
    lr_mult: 0
  }
  param {
    lr_mult: 0
  }
  batch_norm_param {
    use_global_stats: true
  }
}
layer {
  name: "scale2c_branch2c"
  type: "Scale"
  bottom: "res2c_branch2c"
  top: "res2c_branch2c"
  param {
    lr_mult: 0
  }
  param {
    lr_mult: 0
  }
  scale_param {
    bias_term: true
  }
}
layer {
  name: "res2c"
  type: "Eltwise"
  bottom: "res2b"
  bottom: "res2c_branch2c"
  top: "res2c"
  eltwise_param {
    operation: SUM
  }
}
layer {
  name: "res2c_relu"
  type: "ReLU"
  bottom: "res2c"
  top: "res2c"
}
layer {
  name: "res3a_branch1"
  type: "Convolution"
  bottom: "res2c"
  top: "res3a_branch1"
  convolution_param {
    num_output: 512
    bias_term: false
    pad: 0
    kernel_size: 1
    stride: 2
  }
}
layer {
  name: "bn3a_branch1"
  type: "BatchNorm"
  bottom: "res3a_branch1"
  top: "res3a_branch1"
  param {
    lr_mult: 0
  }
  param {
    lr_mult: 0
  }
  param {
    lr_mult: 0
  }
  batch_norm_param {
    use_global_stats: true
  }
}
layer {
  name: "scale3a_branch1"
  type: "Scale"
  bottom: "res3a_branch1"
  top: "res3a_branch1"
  param {
    lr_mult: 0
  }
  param {
    lr_mult: 0
  }
  scale_param {
    bias_term: true
  }
}
layer {
  name: "res3a_branch2a"
  type: "Convolution"
  bottom: "res2c"
  top: "res3a_branch2a"
  convolution_param {
    num_output: 128
    bias_term: false
    pad: 0
    kernel_size: 1
    stride: 2
  }
}
layer {
  name: "bn3a_branch2a"
  type: "BatchNorm"
  bottom: "res3a_branch2a"
  top: "res3a_branch2a"
  param {
    lr_mult: 0
  }
  param {
    lr_mult: 0
  }
  param {
    lr_mult: 0
  }
  batch_norm_param {
    use_global_stats: true
  }
}
layer {
  name: "scale3a_branch2a"
  type: "Scale"
  bottom: "res3a_branch2a"
  top: "res3a_branch2a"
  param {
    lr_mult: 0
  }
  param {
    lr_mult: 0
  }
  scale_param {
    bias_term: true
  }
}
layer {
  name: "res3a_branch2a_relu"
  type: "ReLU"
  bottom: "res3a_branch2a"
  top: "res3a_branch2a"
}
layer {
  name: "res3a_branch2b"
  type: "Convolution"
  bottom: "res3a_branch2a"
  top: "res3a_branch2b"
  convolution_param {
    num_output: 128
    bias_term: false
    pad: 1
    kernel_size: 3
    stride: 1
  }
}
layer {
  name: "bn3a_branch2b"
  type: "BatchNorm"
  bottom: "res3a_branch2b"
  top: "res3a_branch2b"
  param {
    lr_mult: 0
  }
  param {
    lr_mult: 0
  }
  param {
    lr_mult: 0
  }
  batch_norm_param {
    use_global_stats: true
  }
}
layer {
  name: "scale3a_branch2b"
  type: "Scale"
  bottom: "res3a_branch2b"
  top: "res3a_branch2b"
  param {
    lr_mult: 0
  }
  param {
    lr_mult: 0
  }
  scale_param {
    bias_term: true
  }
}
layer {
  name: "res3a_branch2b_relu"
  type: "ReLU"
  bottom: "res3a_branch2b"
  top: "res3a_branch2b"
}
layer {
  name: "res3a_branch2c"
  type: "Convolution"
  bottom: "res3a_branch2b"
  top: "res3a_branch2c"
  convolution_param {
    num_output: 512
    bias_term: false
    pad: 0
    kernel_size: 1
    stride: 1
  }
}
layer {
  name: "bn3a_branch2c"
  type: "BatchNorm"
  bottom: "res3a_branch2c"
  top: "res3a_branch2c"
  param {
    lr_mult: 0
  }
  param {
    lr_mult: 0
  }
  param {
    lr_mult: 0
  }
  batch_norm_param {
    use_global_stats: true
  }
}
layer {
  name: "scale3a_branch2c"
  type: "Scale"
  bottom: "res3a_branch2c"
  top: "res3a_branch2c"
  param {
    lr_mult: 0
  }
  param {
    lr_mult: 0
  }
  scale_param {
    bias_term: true
  }
}
layer {
  name: "res3a"
  type: "Eltwise"
  bottom: "res3a_branch1"
  bottom: "res3a_branch2c"
  top: "res3a"
  eltwise_param {
    operation: SUM
  }
}
layer {
  name: "res3a_relu"
  type: "ReLU"
  bottom: "res3a"
  top: "res3a"
}
layer {
  name: "res3b_branch2a"
  type: "Convolution"
  bottom: "res3a"
  top: "res3b_branch2a"
  convolution_param {
    num_output: 128
    bias_term: false
    pad: 0
    kernel_size: 1
    stride: 1
  }
}
layer {
  name: "bn3b_branch2a"
  type: "BatchNorm"
  bottom: "res3b_branch2a"
  top: "res3b_branch2a"
  param {
    lr_mult: 0
  }
  param {
    lr_mult: 0
  }
  param {
    lr_mult: 0
  }
  batch_norm_param {
    use_global_stats: true
  }
}
layer {
  name: "scale3b_branch2a"
  type: "Scale"
  bottom: "res3b_branch2a"
  top: "res3b_branch2a"
  param {
    lr_mult: 0
  }
  param {
    lr_mult: 0
  }
  scale_param {
    bias_term: true
  }
}
layer {
  name: "res3b_branch2a_relu"
  type: "ReLU"
  bottom: "res3b_branch2a"
  top: "res3b_branch2a"
}
layer {
  name: "res3b_branch2b"
  type: "Convolution"
  bottom: "res3b_branch2a"
  top: "res3b_branch2b"
  convolution_param {
    num_output: 128
    bias_term: false
    pad: 1
    kernel_size: 3
    stride: 1
  }
}
layer {
  name: "bn3b_branch2b"
  type: "BatchNorm"
  bottom: "res3b_branch2b"
  top: "res3b_branch2b"
  param {
    lr_mult: 0
  }
  param {
    lr_mult: 0
  }
  param {
    lr_mult: 0
  }
  batch_norm_param {
    use_global_stats: true
  }
}
layer {
  name: "scale3b_branch2b"
  type: "Scale"
  bottom: "res3b_branch2b"
  top: "res3b_branch2b"
  param {
    lr_mult: 0
  }
  param {
    lr_mult: 0
  }
  scale_param {
    bias_term: true
  }
}
layer {
  name: "res3b_branch2b_relu"
  type: "ReLU"
  bottom: "res3b_branch2b"
  top: "res3b_branch2b"
}
layer {
  name: "res3b_branch2c"
  type: "Convolution"
  bottom: "res3b_branch2b"
  top: "res3b_branch2c"
  convolution_param {
    num_output: 512
    bias_term: false
    pad: 0
    kernel_size: 1
    stride: 1
  }
}
layer {
  name: "bn3b_branch2c"
  type: "BatchNorm"
  bottom: "res3b_branch2c"
  top: "res3b_branch2c"
  param {
    lr_mult: 0
  }
  param {
    lr_mult: 0
  }
  param {
    lr_mult: 0
  }
  batch_norm_param {
    use_global_stats: true
  }
}
layer {
  name: "scale3b_branch2c"
  type: "Scale"
  bottom: "res3b_branch2c"
  top: "res3b_branch2c"
  param {
    lr_mult: 0
  }
  param {
    lr_mult: 0
  }
  scale_param {
    bias_term: true
  }
}
layer {
  name: "res3b"
  type: "Eltwise"
  bottom: "res3a"
  bottom: "res3b_branch2c"
  top: "res3b"
  eltwise_param {
    operation: SUM
  }
}
layer {
  name: "res3b_relu"
  type: "ReLU"
  bottom: "res3b"
  top: "res3b"
}
layer {
  name: "res3c_branch2a"
  type: "Convolution"
  bottom: "res3b"
  top: "res3c_branch2a"
  convolution_param {
    num_output: 128
    bias_term: false
    pad: 0
    kernel_size: 1
    stride: 1
  }
}
layer {
  name: "bn3c_branch2a"
  type: "BatchNorm"
  bottom: "res3c_branch2a"
  top: "res3c_branch2a"
  param {
    lr_mult: 0
  }
  param {
    lr_mult: 0
  }
  param {
    lr_mult: 0
  }
  batch_norm_param {
    use_global_stats: true
  }
}
layer {
  name: "scale3c_branch2a"
  type: "Scale"
  bottom: "res3c_branch2a"
  top: "res3c_branch2a"
  param {
    lr_mult: 0
  }
  param {
    lr_mult: 0
  }
  scale_param {
    bias_term: true
  }
}
layer {
  name: "res3c_branch2a_relu"
  type: "ReLU"
  bottom: "res3c_branch2a"
  top: "res3c_branch2a"
}
layer {
  name: "res3c_branch2b"
  type: "Convolution"
  bottom: "res3c_branch2a"
  top: "res3c_branch2b"
  convolution_param {
    num_output: 128
    bias_term: false
    pad: 1
    kernel_size: 3
    stride: 1
  }
}
layer {
  name: "bn3c_branch2b"
  type: "BatchNorm"
  bottom: "res3c_branch2b"
  top: "res3c_branch2b"
  param {
    lr_mult: 0
  }
  param {
    lr_mult: 0
  }
  param {
    lr_mult: 0
  }
  batch_norm_param {
    use_global_stats: true
  }
}
layer {
  name: "scale3c_branch2b"
  type: "Scale"
  bottom: "res3c_branch2b"
  top: "res3c_branch2b"
  param {
    lr_mult: 0
  }
  param {
    lr_mult: 0
  }
  scale_param {
    bias_term: true
  }
}
layer {
  name: "res3c_branch2b_relu"
  type: "ReLU"
  bottom: "res3c_branch2b"
  top: "res3c_branch2b"
}
layer {
  name: "res3c_branch2c"
  type: "Convolution"
  bottom: "res3c_branch2b"
  top: "res3c_branch2c"
  convolution_param {
    num_output: 512
    bias_term: false
    pad: 0
    kernel_size: 1
    stride: 1
  }
}
layer {
  name: "bn3c_branch2c"
  type: "BatchNorm"
  bottom: "res3c_branch2c"
  top: "res3c_branch2c"
  param {
    lr_mult: 0
  }
  param {
    lr_mult: 0
  }
  param {
    lr_mult: 0
  }
  batch_norm_param {
    use_global_stats: true
  }
}
layer {
  name: "scale3c_branch2c"
  type: "Scale"
  bottom: "res3c_branch2c"
  top: "res3c_branch2c"
  param {
    lr_mult: 0
  }
  param {
    lr_mult: 0
  }
  scale_param {
    bias_term: true
  }
}
layer {
  name: "res3c"
  type: "Eltwise"
  bottom: "res3b"
  bottom: "res3c_branch2c"
  top: "res3c"
  eltwise_param {
    operation: SUM
  }
}
layer {
  name: "res3c_relu"
  type: "ReLU"
  bottom: "res3c"
  top: "res3c"
}
layer {
  name: "res3d_branch2a"
  type: "Convolution"
  bottom: "res3c"
  top: "res3d_branch2a"
  convolution_param {
    num_output: 128
    bias_term: false
    pad: 0
    kernel_size: 1
    stride: 1
  }
}
layer {
  name: "bn3d_branch2a"
  type: "BatchNorm"
  bottom: "res3d_branch2a"
  top: "res3d_branch2a"
  param {
    lr_mult: 0
  }
  param {
    lr_mult: 0
  }
  param {
    lr_mult: 0
  }
  batch_norm_param {
    use_global_stats: true
  }
}
layer {
  name: "scale3d_branch2a"
  type: "Scale"
  bottom: "res3d_branch2a"
  top: "res3d_branch2a"
  param {
    lr_mult: 0
  }
  param {
    lr_mult: 0
  }
  scale_param {
    bias_term: true
  }
}
layer {
  name: "res3d_branch2a_relu"
  type: "ReLU"
  bottom: "res3d_branch2a"
  top: "res3d_branch2a"
}
layer {
  name: "res3d_branch2b"
  type: "Convolution"
  bottom: "res3d_branch2a"
  top: "res3d_branch2b"
  convolution_param {
    num_output: 128
    bias_term: false
    pad: 1
    kernel_size: 3
    stride: 1
  }
}
layer {
  name: "bn3d_branch2b"
  type: "BatchNorm"
  bottom: "res3d_branch2b"
  top: "res3d_branch2b"
  param {
    lr_mult: 0
  }
  param {
    lr_mult: 0
  }
  param {
    lr_mult: 0
  }
  batch_norm_param {
    use_global_stats: true
  }
}
layer {
  name: "scale3d_branch2b"
  type: "Scale"
  bottom: "res3d_branch2b"
  top: "res3d_branch2b"
  param {
    lr_mult: 0
  }
  param {
    lr_mult: 0
  }
  scale_param {
    bias_term: true
  }
}
layer {
  name: "res3d_branch2b_relu"
  type: "ReLU"
  bottom: "res3d_branch2b"
  top: "res3d_branch2b"
}
layer {
  name: "res3d_branch2c"
  type: "Convolution"
  bottom: "res3d_branch2b"
  top: "res3d_branch2c"
  convolution_param {
    num_output: 512
    bias_term: false
    pad: 0
    kernel_size: 1
    stride: 1
  }
}
layer {
  name: "bn3d_branch2c"
  type: "BatchNorm"
  bottom: "res3d_branch2c"
  top: "res3d_branch2c"
  param {
    lr_mult: 0
  }
  param {
    lr_mult: 0
  }
  param {
    lr_mult: 0
  }
  batch_norm_param {
    use_global_stats: true
  }
}
layer {
  name: "scale3d_branch2c"
  type: "Scale"
  bottom: "res3d_branch2c"
  top: "res3d_branch2c"
  param {
    lr_mult: 0
  }
  param {
    lr_mult: 0
  }
  scale_param {
    bias_term: true
  }
}
layer {
  name: "res3d"
  type: "Eltwise"
  bottom: "res3c"
  bottom: "res3d_branch2c"
  top: "res3d"
  eltwise_param {
    operation: SUM
  }
}
layer {
  name: "res3d_relu"
  type: "ReLU"
  bottom: "res3d"
  top: "res3d"
}

########## div 3 branch #############
layer {
  name: "res4a_branch1_div3"
  type: "Convolution"
  bottom: "res3d"
  top: "res4a_branch1_div3"
  param {
    name: "res4a_branch1_weight"
  }
  convolution_param {
    num_output: 1024
    bias_term: false
    pad: 0
    kernel_size: 1
    stride: 3
  }
}
layer {
  name: "bn4a_branch1_div3"
  type: "BatchNorm"
  bottom: "res4a_branch1_div3"
  top: "res4a_branch1_div3"
  param {
    lr_mult: 0
  }
  param {
    lr_mult: 0
  }
  param {
    lr_mult: 0
  }
  batch_norm_param {
    use_global_stats: true
  }
}
layer {
  name: "scale4a_branch1_div3"
  type: "Scale"
  bottom: "res4a_branch1_div3"
  top: "res4a_branch1_div3"
  param {
    lr_mult: 0
  }
  param {
    lr_mult: 0
  }
  scale_param {
    bias_term: true
  }
}
layer {
  name: "res4a_branch2a_div3"
  type: "Convolution"
  bottom: "res3d"
  top: "res4a_branch2a_div3"
  param {
    name: "res4a_branch2a_weight"
  }
  convolution_param {
    num_output: 256
    bias_term: false
    pad: 0
    kernel_size: 1
    stride: 3
  }
}
layer {
  name: "bn4a_branch2a_div3"
  type: "BatchNorm"
  bottom: "res4a_branch2a_div3"
  top: "res4a_branch2a_div3"
  param {
    lr_mult: 0
  }
  param {
    lr_mult: 0
  }
  param {
    lr_mult: 0
  }
  batch_norm_param {
    use_global_stats: true
  }
}
layer {
  name: "scale4a_branch2a_div3"
  type: "Scale"
  bottom: "res4a_branch2a_div3"
  top: "res4a_branch2a_div3"
  param {
    lr_mult: 0
  }
  param {
    lr_mult: 0
  }
  scale_param {
    bias_term: true
  }
}
layer {
  name: "res4a_branch2a_relu_div3"
  type: "ReLU"
  bottom: "res4a_branch2a_div3"
  top: "res4a_branch2a_div3"
}
layer {
  name: "res4a_branch2b_div3"
  type: "Convolution"
  bottom: "res4a_branch2a_div3"
  top: "res4a_branch2b_div3"
  param {
    name: "res4a_branch2b_weight"
  }
  convolution_param {
    num_output: 256
    bias_term: false
    pad: 1
    kernel_size: 3
    stride: 1
  }
}
layer {
  name: "bn4a_branch2b_div3"
  type: "BatchNorm"
  bottom: "res4a_branch2b_div3"
  top: "res4a_branch2b_div3"
  param {
    lr_mult: 0
  }
  param {
    lr_mult: 0
  }
  param {
    lr_mult: 0
  }
  batch_norm_param {
    use_global_stats: true
  }
}
layer {
  name: "scale4a_branch2b_div3"
  type: "Scale"
  bottom: "res4a_branch2b_div3"
  top: "res4a_branch2b_div3"
  param {
    lr_mult: 0
  }
  param {
    lr_mult: 0
  }
  scale_param {
    bias_term: true
  }
}
layer {
  name: "res4a_branch2b_relu_div3"
  type: "ReLU"
  bottom: "res4a_branch2b_div3"
  top: "res4a_branch2b_div3"
}
layer {
  name: "res4a_branch2c_div3"
  type: "Convolution"
  param {
    name: "res4a_branch2c_weight"
  }
  bottom: "res4a_branch2b_div3"
  top: "res4a_branch2c_div3"
  convolution_param {
    num_output: 1024
    bias_term: false
    pad: 0
    kernel_size: 1
    stride: 1
  }
}
layer {
  name: "bn4a_branch2c_div3"
  type: "BatchNorm"
  bottom: "res4a_branch2c_div3"
  top: "res4a_branch2c_div3"
  param {
    lr_mult: 0
  }
  param {
    lr_mult: 0
  }
  param {
    lr_mult: 0
  }
  batch_norm_param {
    use_global_stats: true
  }
}
layer {
  name: "scale4a_branch2c_div3"
  type: "Scale"
  bottom: "res4a_branch2c_div3"
  top: "res4a_branch2c_div3"
  param {
    lr_mult: 0
  }
  param {
    lr_mult: 0
  }
  scale_param {
    bias_term: true
  }
}
layer {
  name: "res4a_div3"
  type: "Eltwise"
  bottom: "res4a_branch1_div3"
  bottom: "res4a_branch2c_div3"
  top: "res4a_div3"
  eltwise_param {
    operation: SUM
  }
}
layer {
  name: "res4a_relu_div3"
  type: "ReLU"
  bottom: "res4a_div3"
  top: "res4a_div3"
}
layer {
  name: "res4b_branch2a_div3"
  type: "Convolution"
  bottom: "res4a_div3"
  top: "res4b_branch2a_div3"
  param {
    name: "res4b_branch2a_weight"
  }
  convolution_param {
    num_output: 256
    bias_term: false
    pad: 0
    kernel_size: 1
    stride: 1
  }
}
layer {
  name: "bn4b_branch2a_div3"
  type: "BatchNorm"
  bottom: "res4b_branch2a_div3"
  top: "res4b_branch2a_div3"
  param {
    lr_mult: 0
  }
  param {
    lr_mult: 0
  }
  param {
    lr_mult: 0
  }
  batch_norm_param {
    use_global_stats: true
  }
}
layer {
  name: "scale4b_branch2a_div3"
  type: "Scale"
  bottom: "res4b_branch2a_div3"
  top: "res4b_branch2a_div3"
  param {
    lr_mult: 0
  }
  param {
    lr_mult: 0
  }
  scale_param {
    bias_term: true
  }
}
layer {
  name: "res4b_branch2a_relu_div3"
  type: "ReLU"
  bottom: "res4b_branch2a_div3"
  top: "res4b_branch2a_div3"
}
layer {
  name: "res4b_branch2b_div3"
  type: "Convolution"
  bottom: "res4b_branch2a_div3"
  top: "res4b_branch2b_div3"
  param {
    name: "res4b_branch2b_weight"
  }
  convolution_param {
    num_output: 256
    bias_term: false
    pad: 1
    kernel_size: 3
    stride: 1
  }
}
layer {
  name: "bn4b_branch2b_div3"
  type: "BatchNorm"
  bottom: "res4b_branch2b_div3"
  top: "res4b_branch2b_div3"
  param {
    lr_mult: 0
  }
  param {
    lr_mult: 0
  }
  param {
    lr_mult: 0
  }
  batch_norm_param {
    use_global_stats: true
  }
}
layer {
  name: "scale4b_branch2b_div3"
  type: "Scale"
  bottom: "res4b_branch2b_div3"
  top: "res4b_branch2b_div3"
  param {
    lr_mult: 0
  }
  param {
    lr_mult: 0
  }
  scale_param {
    bias_term: true
  }
}
layer {
  name: "res4b_branch2b_relu_div3"
  type: "ReLU"
  bottom: "res4b_branch2b_div3"
  top: "res4b_branch2b_div3"
}
layer {
  name: "res4b_branch2c_div3"
  type: "Convolution"
  bottom: "res4b_branch2b_div3"
  top: "res4b_branch2c_div3"
  param {
    name: "res4b_branch2c_weight"
  }
  convolution_param {
    num_output: 1024
    bias_term: false
    pad: 0
    kernel_size: 1
    stride: 1
  }
}
layer {
  name: "bn4b_branch2c_div3"
  type: "BatchNorm"
  bottom: "res4b_branch2c_div3"
  top: "res4b_branch2c_div3"
  param {
    lr_mult: 0
  }
  param {
    lr_mult: 0
  }
  param {
    lr_mult: 0
  }
  batch_norm_param {
    use_global_stats: true
  }
}
layer {
  name: "scale4b_branch2c_div3"
  type: "Scale"
  bottom: "res4b_branch2c_div3"
  top: "res4b_branch2c_div3"
  param {
    lr_mult: 0
  }
  param {
    lr_mult: 0
  }
  scale_param {
    bias_term: true
  }
}
layer {
  name: "res4b"
  type: "Eltwise"
  bottom: "res4a_div3"
  bottom: "res4b_branch2c_div3"
  top: "res4b_div3"
  eltwise_param {
    operation: SUM
  }
}
layer {
  name: "res4b_relu_div3"
  type: "ReLU"
  bottom: "res4b_div3"
  top: "res4b_div3"
}
layer {
  name: "res4c_branch2a_div3"
  type: "Convolution"
  bottom: "res4b_div3"
  top: "res4c_branch2a_div3"
  param {
    name: "res4c_branch2a_weight"
  }
  convolution_param {
    num_output: 256
    bias_term: false
    pad: 0
    kernel_size: 1
    stride: 1
  }
}
layer {
  name: "bn4c_branch2a_div3"
  type: "BatchNorm"
  bottom: "res4c_branch2a_div3"
  top: "res4c_branch2a_div3"
  param {
    lr_mult: 0
  }
  param {
    lr_mult: 0
  }
  param {
    lr_mult: 0
  }
  batch_norm_param {
    use_global_stats: true
  }
}
layer {
  name: "scale4c_branch2a_div3"
  type: "Scale"
  bottom: "res4c_branch2a_div3"
  top: "res4c_branch2a_div3"
  param {
    lr_mult: 0
  }
  param {
    lr_mult: 0
  }
  scale_param {
    bias_term: true
  }
}
layer {
  name: "res4c_branch2a_relu_div3"
  type: "ReLU"
  bottom: "res4c_branch2a_div3"
  top: "res4c_branch2a_div3"
}
layer {
  name: "res4c_branch2b_div3"
  type: "Convolution"
  bottom: "res4c_branch2a_div3"
  top: "res4c_branch2b_div3"
  param {
    name: "res4c_branch2b_weight"
  }
  convolution_param {
    num_output: 256
    bias_term: false
    pad: 1
    kernel_size: 3
    stride: 1
  }
}
layer {
  name: "bn4c_branch2b_div3"
  type: "BatchNorm"
  bottom: "res4c_branch2b_div3"
  top: "res4c_branch2b_div3"
  param {
    lr_mult: 0
  }
  param {
    lr_mult: 0
  }
  param {
    lr_mult: 0
  }
  batch_norm_param {
    use_global_stats: true
  }
}
layer {
  name: "scale4c_branch2b_div3"
  type: "Scale"
  bottom: "res4c_branch2b_div3"
  top: "res4c_branch2b_div3"
  param {
    lr_mult: 0
  }
  param {
    lr_mult: 0
  }
  scale_param {
    bias_term: true
  }
}
layer {
  name: "res4c_branch2b_relu_div3"
  type: "ReLU"
  bottom: "res4c_branch2b_div3"
  top: "res4c_branch2b_div3"
}
layer {
  name: "res4c_branch2c_div3"
  type: "Convolution"
  bottom: "res4c_branch2b_div3"
  top: "res4c_branch2c_div3"
  param {
    name: "res4c_branch2c_weight"
  }
  convolution_param {
    num_output: 1024
    bias_term: false
    pad: 0
    kernel_size: 1
    stride: 1
  }
}
layer {
  name: "bn4c_branch2c_div3"
  type: "BatchNorm"
  bottom: "res4c_branch2c_div3"
  top: "res4c_branch2c_div3"
  param {
    lr_mult: 0
  }
  param {
    lr_mult: 0
  }
  param {
    lr_mult: 0
  }
  batch_norm_param {
    use_global_stats: true
  }
}
layer {
  name: "scale4c_branch2c_div3"
  type: "Scale"
  bottom: "res4c_branch2c_div3"
  top: "res4c_branch2c_div3"
  param {
    lr_mult: 0
  }
  param {
    lr_mult: 0
  }
  scale_param {
    bias_term: true
  }
}
layer {
  name: "res4c_div3"
  type: "Eltwise"
  bottom: "res4b_div3"
  bottom: "res4c_branch2c_div3"
  top: "res4c_div3"
  eltwise_param {
    operation: SUM
  }
}
layer {
  name: "res4c_relu_div3"
  type: "ReLU"
  bottom: "res4c_div3"
  top: "res4c_div3"
}
layer {
  name: "res4d_branch2a_div3"
  type: "Convolution"
  bottom: "res4c_div3"
  top: "res4d_branch2a_div3"
  param {
    name: "res4d_branch2a_weight"
  }
  convolution_param {
    num_output: 256
    bias_term: false
    pad: 0
    kernel_size: 1
    stride: 1
  }
}
layer {
  name: "bn4d_branch2a_div3"
  type: "BatchNorm"
  bottom: "res4d_branch2a_div3"
  top: "res4d_branch2a_div3"
  param {
    lr_mult: 0
  }
  param {
    lr_mult: 0
  }
  param {
    lr_mult: 0
  }
  batch_norm_param {
    use_global_stats: true
  }
}
layer {
  name: "scale4d_branch2a_div3"
  type: "Scale"
  bottom: "res4d_branch2a_div3"
  top: "res4d_branch2a_div3"
  param {
    lr_mult: 0
  }
  param {
    lr_mult: 0
  }
  scale_param {
    bias_term: true
  }
}
layer {
  name: "res4d_branch2a_relu_div3"
  type: "ReLU"
  bottom: "res4d_branch2a_div3"
  top: "res4d_branch2a_div3"
}
layer {
  name: "res4d_branch2b_div3"
  type: "Convolution"
  bottom: "res4d_branch2a_div3"
  top: "res4d_branch2b_div3"
  param {
    name: "res4d_branch2b_weight"
  }
  convolution_param {
    num_output: 256
    bias_term: false
    pad: 1
    kernel_size: 3
    stride: 1
  }
}
layer {
  name: "bn4d_branch2b_div3"
  type: "BatchNorm"
  bottom: "res4d_branch2b_div3"
  top: "res4d_branch2b_div3"
  param {
    lr_mult: 0
  }
  param {
    lr_mult: 0
  }
  param {
    lr_mult: 0
  }
  batch_norm_param {
    use_global_stats: true
  }
}
layer {
  name: "scale4d_branch2b_div3"
  type: "Scale"
  bottom: "res4d_branch2b_div3"
  top: "res4d_branch2b_div3"
  param {
    lr_mult: 0
  }
  param {
    lr_mult: 0
  }
  scale_param {
    bias_term: true
  }
}
layer {
  name: "res4d_branch2b_relu_div3"
  type: "ReLU"
  bottom: "res4d_branch2b_div3"
  top: "res4d_branch2b_div3"
}
layer {
  name: "res4d_branch2c_div3"
  type: "Convolution"
  bottom: "res4d_branch2b_div3"
  top: "res4d_branch2c_div3"
  param {
    name: "res4d_branch2c_weight"
  }
  convolution_param {
    num_output: 1024
    bias_term: false
    pad: 0
    kernel_size: 1
    stride: 1
  }
}
layer {
  name: "bn4d_branch2c_div3"
  type: "BatchNorm"
  bottom: "res4d_branch2c_div3"
  top: "res4d_branch2c_div3"
  param {
    lr_mult: 0
  }
  param {
    lr_mult: 0
  }
  param {
    lr_mult: 0
  }
  batch_norm_param {
    use_global_stats: true
  }
}
layer {
  name: "scale4d_branch2c_div3"
  type: "Scale"
  bottom: "res4d_branch2c_div3"
  top: "res4d_branch2c_div3"
  param {
    lr_mult: 0
  }
  param {
    lr_mult: 0
  }
  scale_param {
    bias_term: true
  }
}
layer {
  name: "res4d_div3"
  type: "Eltwise"
  bottom: "res4c_div3"
  bottom: "res4d_branch2c_div3"
  top: "res4d_div3"
  eltwise_param {
    operation: SUM
  }
}
layer {
  name: "res4d_relu_div3"
  type: "ReLU"
  bottom: "res4d_div3"
  top: "res4d_div3"
}
layer {
  name: "res4e_branch2a_div3"
  type: "Convolution"
  bottom: "res4d_div3"
  top: "res4e_branch2a_div3"
  param {
    name: "res4e_branch2a_weight"
  }
  convolution_param {
    num_output: 256
    bias_term: false
    pad: 0
    kernel_size: 1
    stride: 1
  }
}
layer {
  name: "bn4e_branch2a_div3"
  type: "BatchNorm"
  bottom: "res4e_branch2a_div3"
  top: "res4e_branch2a_div3"
  param {
    lr_mult: 0
  }
  param {
    lr_mult: 0
  }
  param {
    lr_mult: 0
  }
  batch_norm_param {
    use_global_stats: true
  }
}
layer {
  name: "scale4e_branch2a_div3"
  type: "Scale"
  bottom: "res4e_branch2a_div3"
  top: "res4e_branch2a_div3"
  param {
    lr_mult: 0
  }
  param {
    lr_mult: 0
  }
  scale_param {
    bias_term: true
  }
}
layer {
  name: "res4e_branch2a_relu_div3"
  type: "ReLU"
  bottom: "res4e_branch2a_div3"
  top: "res4e_branch2a_div3"
}
layer {
  name: "res4e_branch2b_div3"
  type: "Convolution"
  bottom: "res4e_branch2a_div3"
  top: "res4e_branch2b_div3"
  param {
    name: "res4e_branch2b_weight"
  }
  convolution_param {
    num_output: 256
    bias_term: false
    pad: 1
    kernel_size: 3
    stride: 1
  }
}
layer {
  name: "bn4e_branch2b_div3"
  type: "BatchNorm"
  bottom: "res4e_branch2b_div3"
  top: "res4e_branch2b_div3"
  param {
    lr_mult: 0
  }
  param {
    lr_mult: 0
  }
  param {
    lr_mult: 0
  }
  batch_norm_param {
    use_global_stats: true
  }
}
layer {
  name: "scale4e_branch2b_div3"
  type: "Scale"
  bottom: "res4e_branch2b_div3"
  top: "res4e_branch2b_div3"
  param {
    lr_mult: 0
  }
  param {
    lr_mult: 0
  }
  scale_param {
    bias_term: true
  }
}
layer {
  name: "res4e_branch2b_relu_div3"
  type: "ReLU"
  bottom: "res4e_branch2b_div3"
  top: "res4e_branch2b_div3"
}
layer {
  name: "res4e_branch2c_div3"
  type: "Convolution"
  bottom: "res4e_branch2b_div3"
  top: "res4e_branch2c_div3"
  param {
    name: "res4e_branch2c_weight"
  }
  convolution_param {
    num_output: 1024
    bias_term: false
    pad: 0
    kernel_size: 1
    stride: 1
  }
}
layer {
  name: "bn4e_branch2c_div3"
  type: "BatchNorm"
  bottom: "res4e_branch2c_div3"
  top: "res4e_branch2c_div3"
  param {
    lr_mult: 0
  }
  param {
    lr_mult: 0
  }
  param {
    lr_mult: 0
  }
  batch_norm_param {
    use_global_stats: true
  }
}
layer {
  name: "scale4e_branch2c_div3"
  type: "Scale"
  bottom: "res4e_branch2c_div3"
  top: "res4e_branch2c_div3"
  param {
    lr_mult: 0
  }
  param {
    lr_mult: 0
  }
  scale_param {
    bias_term: true
  }
}
layer {
  name: "res4e_div3"
  type: "Eltwise"
  bottom: "res4d_div3"
  bottom: "res4e_branch2c_div3"
  top: "res4e_div3"
  eltwise_param {
    operation: SUM
  }
}
layer {
  name: "res4e_relu_div3"
  type: "ReLU"
  bottom: "res4e_div3"
  top: "res4e_div3"
}
layer {
  name: "res4f_branch2a_div3"
  type: "Convolution"
  bottom: "res4e_div3"
  top: "res4f_branch2a_div3"
  param {
    name: "res4f_branch2a_weight"
  }
  convolution_param {
    num_output: 256
    bias_term: false
    pad: 0
    kernel_size: 1
    stride: 1
  }
}
layer {
  name: "bn4f_branch2a_div3"
  type: "BatchNorm"
  bottom: "res4f_branch2a_div3"
  top: "res4f_branch2a_div3"
  param {
    lr_mult: 0
  }
  param {
    lr_mult: 0
  }
  param {
    lr_mult: 0
  }
  batch_norm_param {
    use_global_stats: true
  }
}
layer {
  name: "scale4f_branch2a_div3"
  type: "Scale"
  bottom: "res4f_branch2a_div3"
  top: "res4f_branch2a_div3"
  param {
    lr_mult: 0
  }
  param {
    lr_mult: 0
  }
  scale_param {
    bias_term: true
  }
}
layer {
  name: "res4f_branch2a_relu_div3"
  type: "ReLU"
  bottom: "res4f_branch2a_div3"
  top: "res4f_branch2a_div3"
}
layer {
  name: "res4f_branch2b_div3"
  type: "Convolution"
  bottom: "res4f_branch2a_div3"
  top: "res4f_branch2b_div3"
  param {
    name: "res4f_branch2b_weight"
  }
  convolution_param {
    num_output: 256
    bias_term: false
    pad: 1
    kernel_size: 3
    stride: 1
  }
}
layer {
  name: "bn4f_branch2b_div3"
  type: "BatchNorm"
  bottom: "res4f_branch2b_div3"
  top: "res4f_branch2b_div3"
  param {
    lr_mult: 0
  }
  param {
    lr_mult: 0
  }
  param {
    lr_mult: 0
  }
  batch_norm_param {
    use_global_stats: true
  }
}
layer {
  name: "scale4f_branch2b_div3"
  type: "Scale"
  bottom: "res4f_branch2b_div3"
  top: "res4f_branch2b_div3"
  param {
    lr_mult: 0
  }
  param {
    lr_mult: 0
  }
  scale_param {
    bias_term: true
  }
}
layer {
  name: "res4f_branch2b_relu_div3"
  type: "ReLU"
  bottom: "res4f_branch2b_div3"
  top: "res4f_branch2b_div3"
}
layer {
  name: "res4f_branch2c_div3"
  type: "Convolution"
  bottom: "res4f_branch2b_div3"
  top: "res4f_branch2c_div3"
  param {
    name: "res4f_branch2c_weight"
  }
  convolution_param {
    num_output: 1024
    bias_term: false
    pad: 0
    kernel_size: 1
    stride: 1
  }
}
layer {
  name: "bn4f_branch2c_div3"
  type: "BatchNorm"
  bottom: "res4f_branch2c_div3"
  top: "res4f_branch2c_div3"
  param {
    lr_mult: 0
  }
  param {
    lr_mult: 0
  }
  param {
    lr_mult: 0
  }
  batch_norm_param {
    use_global_stats: true
  }
}
layer {
  name: "scale4f_branch2c_div3"
  type: "Scale"
  bottom: "res4f_branch2c_div3"
  top: "res4f_branch2c_div3"
  param {
    lr_mult: 0
  }
  param {
    lr_mult: 0
  }
  scale_param {
    bias_term: true
  }
}
layer {
  name: "res4f_div3"
  type: "Eltwise"
  bottom: "res4e_div3"
  bottom: "res4f_branch2c_div3"
  top: "res4f_div3"
  eltwise_param {
    operation: SUM
  }
}
layer {
  name: "res4f_relu_div3"
  type: "ReLU"
  bottom: "res4f_div3"
  top: "res4f_div3"
}

layer {
  name: "silence_layer"
  type: "Silence"
#  bottom: "res4f"
  bottom: "res4f_div3"
}
